models/TransformerModel.pkl (torch, 565712 bytes, 17 tensors)

weight f4 [64, 1]
00000000: d4ff 6abe 4e21 403e ed87 15c0 0eec 3c3e
00000010: 9341 b3bd 0938 813e 45c4 ca3e c2f1 4ec0
00000020: 13a4 c83e 95ff c53c ae99 8fbb 9057 393d
00000030: d799 6e3e c5a3 623e 348f 2fbf 435c e0be
00000040: 1c2b 36bd 5d87 65be e0a5 663d f900 933a
00000050: 9c17 a13c f90a 24c0 9dbe 0cc0 37a3 873d
00000060: f7af a6bd dc9c cfbe 6c1e 8cbb 0546 93bd
00000070: 1db9 6bc0 dd60 1dc0 3f71 cbbf d111 533e
00000080: c47d 083c 37cc b7bd 3e63 c13e 1484 39c0
00000090: 56c3 ed3d 2a25 07bd 4a45 323c 628c 983e
000000a0: 07c7 34be 4303 8cbe 0720 53c0 f7ba 43be
000000b0: 1681 34bf 95c3 0dbc 2b69 303e 8ade 75be
000000c0: 3340 67c0 3104 bcbe 83a1 9f3d 07b5 49be
000000d0: 6c2e 00bf b978 073e 06f0 603e 827b dd3e
000000e0: 6882 18be 5cfd 17bf 49d9 bf3d 50a3 373d
000000f0: c21c b3bd 8596 ed3b 05c8 abbd fc8d f5bd
-0.22949153 0.18762705 -2.3364213 0.18449423 -0.08752742 0.25238064 0.39602867 -3.2335057
0.3918768 0.024169723 -0.0043823337 0.04524952 0.23300873 0.22132786 -0.68577886 -0.4382039
-0.044474706 -0.22414918 0.056310534 0.00112155 0.019664578 -2.5631697 -2.199134 0.06622928
-0.081390314 -0.40549362 -0.0042760875 -0.071910895 -3.6831734 -2.459037 -1.5893935 0.20612265
0.008330766 -0.08974498 0.37771028 -2.8986864 0.11609523 -0.032994427 0.010880778 0.29794604
-0.17654048 -0.27346238 -3.2988298 -0.1911429 -0.7050947 -0.008652587 0.17227618 -0.24010673
-3.6132934 -0.36721948 0.07794478 -0.19697963 -0.50070834 0.13229646 0.21966562 0.4325829
-0.14893496 -0.5937097 0.09367616 0.04483348 -0.087457195 0.0072506093 -0.0838776 -0.11989972

bias f4 [64]
00000000: f0c2 2ebf 45e9 55bf 2e93 7abe 22f7 40bf
00000010: c26d 553f cc7c 3cbf 58b6 b4bf c86b d0be
00000020: 24ab acbf f3cf b83f b98a cb3f 51ae 37bf
00000030: 71f5 81bf f0e6 ab3f 7cce 83bf 9519 4abf
00000040: e6cc 8d3f 40ce c6be be32 0a40 d4fe 0840
00000050: 44cc a2be ea14 be3e d9d1 863f 4eb5 4abf
00000060: 90b2 e3be fce3 2dbf f8e3 8b3f 9b73 963f
00000070: 2f1c 153e 6200 01bf 3638 fbbe b624 cd3f
00000080: d01a d33f 2293 43bf 28ae aabf 19bf 84be
00000090: 4b47 7a3f 97b1 cf3f 89b5 bd3f 6a86 acbf
000000a0: 90ff 99be e811 febe e3e1 103e de05 77bf
000000b0: c831 5dbf 77b9 d93f 59ab f03f a6aa 5bbf
000000c0: 11d0 3d3f b85e 02bf 2a9c 97bf 6c26 96bf
000000d0: 8464 33bf c830 5dbf bce8 8bbf 02f9 b6bf
000000e0: bc05 a0bf 09a7 76bf 8573 9a3f 3c3e b13f
000000f0: c135 0040 d1ed 4e3e d994 613f 6472 b8be
-0.682662 -0.83559066 -0.24470207 -0.75377095 0.833706 -0.73627925 -1.4118147 -0.4070723
-1.3489728 1.4438461 1.590171 -0.7175036 -1.0153028 1.3429852 -1.0297389 -0.78945285
1.1078155 -0.3882923 2.159347 2.1405535 -0.31796467 0.3712533 1.053279 -0.791829
-0.4447217 -0.67926 1.0928946 1.175403 0.14561532 -0.5039121 -0.49066323 1.6026828
1.6492558 -0.7639638 -1.3334398 -0.25927046 0.97765034 1.6226071 1.4821025 -1.347852
-0.3007779 -0.49623036 0.14148669 -0.9649333 -0.86404085 1.7009724 1.8802291 -0.85807264
0.7414561 -0.5092578 -1.1844532 -1.1730475 -0.7007525 -0.8640256 -1.09304 -1.4294741
-1.250175 -0.96348625 1.2066504 1.3847117 2.0032809 0.20207907 0.8811775 -0.36024773

in_proj_weight f4 [192, 64]
00000000: 298c 523d cf65 a2be e905 5abf b2bc 1e3e
00000010: 4b48 13bf 86fe 29bd 4670 a9bc 460c 48bf
00000020: 5e26 5cbd edf5 75bf 24bd f6bf 43b8 323e
00000030: 219d 04bf bdd0 70bf 8a75 96bd 85a1 dcbe
00000040: 0a3c 0bbf eba5 a0bc 0ae5 23c0 1107 31c0
00000050: 28f3 d43c 22ec f4be 52da 86bf cd04 233c
00000060: aedc 12bf 2ef4 1b3d 9412 16bf ad76 40bf
00000070: b1c3 84bf 77d2 8bbf 45ab 8fbf e886 37c0
00000080: af37 4ebf bd12 e2be 865d 573e c865 70bf
00000090: 6289 24bf 1cda a0bf 4a9d 0ec0 8699 153e
000000a0: 0d7d 693d c926 01be 414f 8dbf 04ee 6bbc
000000b0: dbab 99bd a2b9 02c0 fb7f 14c0 dd27 aa3d
000000c0: 646e 7cbf 40d5 ccbd c618 d93d dc08 813d
000000d0: 6dd9 d5be 1d75 a93b a3f1 433d 889b 3d3e
000000e0: 1204 e0bc d852 47bf 0964 42bf 406d 26bf
000000f0: 8106 60bf 02d1 aabf af6d 01bf d9ca fbbd
00000100: 52d0 7e3d 2195 4abe 7ea8 a8bf 072f 483e
00000110: c347 0abf b5f8 ed3a 7bd1 303e 371a b8bf
00000120: 67ad 9d3d 1570 a0bf 0ac8 15c0 16db 303e
00000130: b2ec c6be f9a3 78bf 2c7d 2c3c 754c aebe
00000140: 17ff 41bf 868f 28bc 9b43 2ec0 b70f 45c0
00000150: fc55 803d 3d5b b4bf 2c3c f3bf f3b3 893d
00000160: a5eb 19bf b528 babd 814c 00bf 754d 43bf
00000170: 07cd e3bf d3db e6bf db71 85bf feb2 4cc0
00000180: 476a 4abf de7a b1be a3f8 5f3e 0f73 c0bf
00000190: 790a 19bf b4d8 c6bf 0658 31c0 cf9f 773e
000001a0: 1e48 ea3d 9eae 6fbd 95f9 cabf 3fa5 083c
000001b0: 69cb 013e 6590 18c0 4183 05c0 357d 5bbc
000001c0: a6b0 ecbf eb3d 16bd 15ef 9f3d ee83 fe3d
000001d0: 4e1a a3be f078 5a3d 4686 8e3e 2cb4 273e
000001e0: 2a07 aaba 928b aebf 8cf9 7fbf 603b 11bf
000001f0: ac97 f1bf d4b1 d6bf f6cd 06bf 73a5 6e3d
00000200: ae37 e4bd 66da 883e dfe9 ce3f 8b9b 82be
00000210: aeab 0a3f 3cdc 47bd cf6e 4bbd cc08 e53f
00000220: 6b81 29bc 9ed9 b93f cd47 1240 de1f 83be
00000230: dd62 b73e 41b5 a03f 42fe 803d 0ea1 c13e
00000240: 083d 573f ec4a acbd 0049 2e40 3d36 5940
00000250: 1c4d bc3d bf54 df3f e865 1540 125d 313d
00000260: 0ea7 073f c1ce d8bd fe73 ef3e 1f99 0f3f
00000270: 359c 0140 ebfc 0d40 82dd ca3f f8ce 6140
00000280: bd71 583f f818 e43e 3065 30bd e02c fa3f
00000290: 18ad 173f d911 d63f e0de 3540 8376 0ebe
000002a0: e07a 063e 6329 bdbd 173a 0240 cddd 023e
000002b0: 9fb1 ee3d a6d1 1240 2ca4 1840 b801 dcbc
000002c0: b797 0040 1431 d83d 9972 0fbe 233d 0f3d
000002d0: 68fb cf3e 799d dbbd 8025 3dbe f208 00be
000002e0: 8028 b33d ace8 de3f 7276 933f 1317 193f
000002f0: 7ba4 0340 8abb d33f 9ad3 223f eb3c c43d
00000300: d945 f1bd 8559 7f3f d9b8 d03e f66c f83d
00000310: b69e 7a3f d2b9 f7bd f4e8 833f aabf d63d
00000320: b86c 653f b385 6b3e a4b3 093f 241c 1bbd
00000330: 2e2b 243f 27c5 2a3f 1eed 6c3d 81e1 533f
00000340: 704d 263f 68da 963d 88e8 403f 4717 153f
00000350: e45b 9bbc 9b41 313e 5284 963e 237b b7bd
00000360: 5baa 663f 2c9b 3d3c 23d6 653f b3c4 5b3f
00000370: eca5 da3c 1fcc 1bbc 5b50 c53e dc28 e53e
00000380: 7d85 533f 4bb7 363f 191d 8a3f cd06 11bd
00000390: 0df6 853f e3f1 df3e fd8c 173f 02da 883f
000003a0: 50ee bcbd 9c01 063e d2ff 5b3d f127 cdbd
000003b0: 4bf7 333d 3fdf bb3e 788b 523f 9859 3cbd
000003c0: 5ccf 9ebd 3955 02be 8dd2 863f f96b 223f
000003d0: b64a 183f d2ff bd3d cd81 783d 7e83 733f
000003e0: e22d 753f fab4 753e 622c 273e 1d8b 583f
000003f0: b62d edbd a251 213e 57bf 123f a551 f3ba
0.0514032 -0.317183 -0.8516527 0.15501669 -0.57532185 -0.041502498 -0.020683419 -0.7814373
-0.053747527 -0.9607838 -1.9276471 0.17453103 -0.5180226 -0.9406851 -0.073466375 -0.4309198
-0.5438849 -0.019610366 -2.5608544 -2.7660563 0.025994852 -0.47836405 -1.0535376 0.009949875
-0.5736798 0.038074665 -0.586221 -0.75181085 -1.037222 -1.0923604 -1.1224142 -2.867609
-0.80553716 -0.4415492 0.2103177 -0.93905306 -0.6427213 -1.2566562 -2.2283502 0.14609346
0.057004023 -0.12612452 -1.1039811 -0.014400009 -0.07503482 -2.0425801 -2.3203113 0.083083846
-0.9860594 -0.10001612 0.10600428 0.06300518 -0.41767445 0.0051714317 0.047837865 0.18516362
-0.02734569 -0.77860785 -0.7593389 -0.6501045 -0.87509924 -1.3345034 -0.5055799 -0.122945495
0.06221039 -0.1978345 -1.317642 0.1954919 -0.5401575 0.0018155786 0.1726741 -1.4383
0.076990895 -1.2534205 -2.3403344 0.17271075 -0.3885246 -0.971252 0.01052789 -0.34042707
-0.7577986 -0.010288125 -2.7228763 -3.0790842 0.062664 -1.4090344 -1.9002738 0.06723776
-0.6012519 -0.090897955 -0.50116736 -0.76290065 -1.7796944 -1.8035835 -1.0425371 -3.1984248
-0.79068416 -0.34664053 0.21872191 -1.5035113 -0.59781605 -1.5534883 -2.7709975 0.24182056
0.114395365 -0.058516137 -1.5857416 0.008340179 0.12675251 -2.3838131 -2.086136 -0.013396551
-1.8491409 -0.036680143 0.07809273 0.12427507 -0.31856006 0.05333799 0.27836818 0.16377324
-0.0012972106 -1.3636343 -0.99990153 -0.56731224 -1.8874412 -1.6773019 -0.5265802 0.058263253
-0.111434326 0.26729125 1.6165122 -0.25509295 0.5416821 -0.048794016 -0.049666222 1.789331
-0.010345797 1.4519536 2.2856324 -0.2561025 0.35817614 1.2555314 0.06298496 0.37818187
0.840775 -0.08412728 2.7232056 3.3939354 0.09194395 1.7447737 2.3343449 0.04330165
0.5298928 -0.1058631 0.46768183 0.5609302 2.0251591 2.218562 1.5848849 3.5282574
0.8454855 0.445503 -0.04306525 1.9544945 0.59248495 1.6724197 2.8417282 -0.13912396
0.1313281 -0.092364095 2.0347955 0.12779923 0.11654972 2.294046 2.3850203 -0.026856288
2.00926 0.10556236 -0.1400856 0.034970414 0.40621495 -0.10723395 -0.18471336 -0.12503412
0.08747959 1.7414756 1.1520522 0.59800833 2.056914 1.6541607 0.6360413 0.09581932
-0.117809005 0.9974597 0.40766028 0.12130158 0.97898424 -0.12095989 1.0305467 0.10485776
0.89619017 0.23000221 0.53789735 -0.037868634 0.64128387 0.6670708 0.05784332 0.82765967
0.6496191 0.073658764 0.75354815 0.58238643 -0.018964715 0.17310183 0.29397827 -0.08959033
0.9010369 0.01157264 0.8977987 0.85847014 0.026690446 -0.0095091155 0.3853787 0.44757736
0.8262556 0.7137343 1.079013 -0.035406876 1.0465714 0.43739232 0.59199506 1.0691531
-0.09225142 0.13086551 0.053710766 -0.10017384 0.04393701 0.3669376 0.8224406 -0.04598388
-0.077543944 -0.12727822 1.0533005 0.63446003 0.59489 0.092773095 0.060670663 0.95122516
0.95773137 0.23994818 0.16325524 0.8458727 -0.11580984 0.15753797 0.5732321 -0.0018563761

in_proj_bias f4 [192]
00000000: 8b4e 72bf 06b2 7bbf e0c4 823f a03d 503f
00000010: ce40 963f 56b1 8abf 4286 853f 2f26 863f
00000020: a4e4 81bf 33ac 8bbf 0403 82bf 750c 703f
00000030: 0b47 8d3f 8bee 863f 382f 703f b95b 753f
00000040: 01d2 85bf 5d07 86bf 2b7e 93bf 83b9 61bf
00000050: 27b8 923f 835e b33e 94a0 7e3e 986e 92bf
00000060: f725 8b3f 667b 813f 4d57 123e ab4d 85be
00000070: 3481 4b3f 79aa 9f3f 21f0 49bf 46b8 afbe
00000080: 4665 0e3f b21c 883f ed9b 8fbf 1047 bd3f
00000090: 59a4 1d3f 7340 62bf f08c 0dbe c46b 11bf
000000a0: 5b8d 8e3f 4b09 04bf 4708 81bf 064e 72bf
000000b0: 88c8 98bf a7bb a73f 50a7 cd3f 20b9 703f
000000c0: a26f 7abf ceb3 8abf 8c87 9a3f d244 89bf
000000d0: fca1 84bf 67e7 8e3f 6e77 a43e 2434 6fbf
000000e0: afae dbbe 7308 76bf 4376 e73d 838f 803f
000000f0: 112d 80bf b1ec 8fbf 2bab 68bf 6d4a 683f
00000100: 2721 f03f a96b 1040 77dc 0bc0 5309 803d
00000110: a901 c2bf 4c60 c53f dd1a 0fc0 c29c 0bc0
00000120: c6a6 fd3f a309 dc3f ca76 f63f 635f f6bf
00000130: 4fe7 03c0 6919 04c0 ef42 dabf 0bf9 c5bf
00000140: 8a97 1340 ba98 0440 5fdd c1be 7b61 da3f
00000150: 865a cf3e dd17 e23f 216a c83f 4401 0240
00000160: abf1 e8bf caf1 d6bf e6ee 4340 913d 59c0
00000170: 1846 04c0 156c d2bf 6b7e d13f 1f31 2040
00000180: 9540 853d a355 ffbf 004f 063f d5fb f1bf
00000190: c7c6 04c0 e6aa dc3f ce56 92bf 520f 1040
000001a0: b34b 06c0 fbb4 0a40 7f50 d03f 25aa d73f
000001b0: d207 0e40 3840 79be 9302 a7be add3 febf
000001c0: cd5e 0540 ee15 de3f 3319 b1bf b3cf 1240
000001d0: 01db ee3f 847c 11c0 3d4d 5a40 d37c 0e40
000001e0: 65af 1740 0313 d33f e1dd e73e 9b6d 0cc0
000001f0: e77f 0440 3d48 e93f cb19 c73f ba1c efbf
00000200: 6d2f 97be 989b 82bd 17db 1cbe 2f17 493f
00000210: 2ad1 4dbf 09cb 72bf 1ab3 80be d3f4 14bf
00000220: 7ce6 6b3f c40b fb3e 19ed 4dbf 62f6 52bf
00000230: cae4 643f 2ceb 143f 4643 f1be eec9 163f
00000240: 88b6 993e 5a76 33bf 1f72 253f 328a 353f
00000250: 9669 38bf f027 64bf 8ca5 273f 9948 ec3e
00000260: d8de 893f 559d 6ebf e0c3 5fbf 41ee 613f
00000270: ea90 803f b99d 623f 0c39 20bf b9ca 94bd
00000280: 8533 43bf 5215 cebe e255 f2be f778 613f
00000290: c9c4 39bf c187 243f 5ee0 453f e63b 7b3f
000002a0: 5a3c 323f af26 0a3f 8348 09bf 4271 65bf
000002b0: 648f 4b3f 9f12 763f d8ee 82bf 5075 1d3f
000002c0: 3298 6c3f c529 603f 71b8 44bf 6e16 c63d
000002d0: 1958 8a3e 2338 02be fe04 573f f182 183f
000002e0: cc76 7e3f 17fa 163e 2b90 38bf 70d4 1b3f
000002f0: 2c69 843f f386 713f 2358 a2bd 3448 28bf
-0.946511 -0.9831852 1.0216331 0.8134403 1.1738527 -1.0835369 1.0431597 1.0480403
-1.01479 -1.0911926 -1.015717 0.9376901 1.1037306 1.0541548 0.9382205 0.9584308
-1.0454713 -1.0470997 -1.1522878 -0.88173693 1.1462449 0.35033044 0.24865943 -1.144
1.0870961 1.0115783 0.14291115 -0.26035818 0.79494023 1.2473899 -0.7888203 -0.34320277
0.5562328 1.0633757 -1.121946 1.4787312 0.615789 -0.8837959 -0.13823295 -0.5680506
1.1136888 -0.5157668 -1.0080651 -0.94650304 -1.1936197 1.3104142 1.6066685 0.9403248
-0.9782659 -1.0836122 1.2072616 -1.0724127 -1.0361934 1.1164368 0.32122368 -0.93438935
-0.4290671 -0.9610664 0.113018535 1.0043796 -1.0013753 -1.1244107 -0.9088618 0.90738565
1.8760117 2.256571 -2.185331 0.062517785 -1.5156757 1.5420012 -2.2360146 -2.1814427
1.981652 1.7190441 1.9255002 -1.924786 -2.060993 -2.064051 -1.7051677 -1.5466627
2.3061242 2.0718217 -0.37864205 1.7060999 0.4049875 1.7663532 1.5657388 2.0313272
-1.8198751 -1.6792538 3.0614562 -3.3943827 -2.0667782 -1.6439234 1.6366705 2.502998
0.06506459 -1.9948009 0.52464294 -1.8904978 -2.0746324 1.7239654 -1.1432741 2.250935
-2.0983703 2.1672962 1.6274565 1.6848799 2.2192273 -0.24340904 -0.3261915 -1.9908348
2.0839112 1.7350442 -1.3835815 2.293927 1.8660585 -2.2732248 3.4109643 2.2263687
2.3700802 1.6490177 0.45286468 -2.1941898 2.0703065 1.822517 1.5554746 -1.8680642
-0.2952837 -0.063773334 -0.15317951 0.78551 -0.80397284 -0.9484106 -0.25136644 -0.5818607
0.92148566 0.49032414 -0.8043991 -0.824072 0.89411604 0.58171344 -0.47121638 0.5890187
0.30022073 -0.70102465 0.6462726 0.70913994 -0.7203611 -0.8912344 0.6548698 0.46149138
1.0771132 -0.9320882 -0.87408257 0.8825417 1.0044224 0.88521916 -0.62587047 -0.07265229
-0.7625049 -0.4025064 -0.47331148 0.880752 -0.72565895 0.64269644 0.7729548 0.9813827
0.6962334 0.53965276 -0.5362627 -0.8962594 0.7951567 0.96122164 -1.0229139 0.6150713
0.9241973 0.87563735 -0.76843935 0.09672247 0.27020338 -0.12716727 0.8399199 0.595748
0.9940002 0.14743839 -0.7209498 0.6087103 1.0344596 0.9434654 -0.07926967 -0.65735173

weight f4 [64, 64]
00000000: be3e 263e 075e 463e 35d9 03be 0812 adbd
00000010: f940 28bc 996a 3c3e c736 2fbd b570 ae3d
00000020: 9d30 ebbd f802 0c3d d8e8 4d3e d4b4 de3c
00000030: 7f8c 163c 4e0a 49be 6795 a23c 9c63 b9bd
00000040: 79e1 543d 6db1 8e3d 473b 78be 2173 65be
00000050: 89a2 863e ed04 0dbd 4830 543d f7de 483d
00000060: 6850 583c a103 863c 19fb 933c bc0f aabd
00000070: 2cc8 553d 69b0 01be a022 f83d 2e74 3a3d
00000080: f2da 5f3e 4bad d43d e513 cf3d b4f3 0fbe
00000090: 062b 403e e918 2fbe 364e 00be c4ae bebd
000000a0: d3ed 47bd 9524 4abd 00bb 6cbd 75ca f73d
000000b0: 61ea 31be 74d5 afbd 0e33 983d 0ea7 cb3b
000000c0: d516 0dbe f8cd dbbd 66a5 9f3e 0fa2 8b3c
000000d0: bbeb 93bd 5571 b03d 1424 d53c a72b f2bd
000000e0: 2e3b 18bd 530d 82be 40e6 853c 27d6 3abe
000000f0: 62e0 96be f6ac ecbd 6b9f 00be 4753 ac3e
00000100: b34f 773d dcac 603e e8ce b0be 3de6 92bd
00000110: 79cc 883d 5f5f 913d 4b28 103e 3113 1e3e
00000120: d9e2 50bd 7ba1 053e 5e73 973d 356d de3c
00000130: da2a 74bd 1474 c03d 4935 07be 192c 82be
00000140: c6b7 833e 6395 8c3e 1c6d 1abd d03b 25be
00000150: 132e 833e 445e e73d 0c77 e63d 5b06 36be
00000160: 7ec8 b2bc 2115 b03d 73cf 0fbe 29b4 35bd
00000170: 06f9 0a3d 0016 823c cc72 f13c a346 a03e
00000180: 272f 643d d336 673e f6b1 813e 8a42 13be
00000190: ea10 eabd b93e 2e3e d989 77bd 3935 b6bc
000001a0: 3a46 7bbe e1c3 6f3e 7c32 08be 8dda 123e
000001b0: 8677 763d fefd 853e 24ec 82bd e753 1d3e
000001c0: eade 01be 16f1 283e 3cb3 3c3d 7d66 103e
000001d0: 26ee 62be 532b e43c 8590 523d 9e2f 6cbe
000001e0: f6f5 cd3c 315f bbbe 0f44 263d 3ed9 31be
000001f0: 11e5 8e3d 9888 3cbd 2038 a8be dcef 053e
00000200: 0d64 fc3d c23b d33d 8968 043d c0bf f5bd
00000210: e2cb 523e 7032 c53e a356 8bbe 4b20 043f
00000220: cd28 38be 22d2 28bd 6f2c da3d f465 983d
00000230: ff88 83be 1257 59be c783 403e f4c6 a2be
00000240: f0c7 abbd 1777 e03e b9e8 0cbc 6707 f8be
00000250: a1a3 813e 5dc3 053e f2f3 85bd 5885 02bf
00000260: 904e 5bbd 7bf0 1b3e 086c 0a3e 2811 5cbe
00000270: 4772 91be aec5 8fbd abea 413e 5cc7 4b3e
00000280: 320f ad3d 760f 083f 0e4c fb3e 9e5c 0abe
00000290: e3ef 0c3e 114c 283c 0b51 8dbd 6117 0abe
000002a0: 88bc c9be 1df9 ddbe c57a f63d 1adb 633e
000002b0: 41fa 47be ac89 4dbe 8db4 563e 0f18 60bd
000002c0: 34bc 86be 3252 c9bd bfec 3b3e 768d 143e
000002d0: 9457 aebe 46fa da3e 77f5 f9bd ff16 2cbf
000002e0: 6a80 bbbc 4a32 53be ce0a a83e d64c 1ebf
000002f0: 6eca 22bb ff6f 84be c2b0 9a3c 5284 a63d
00000300: d166 723e b895 833e b2ea 7fbe a99c 793c
00000310: d9b0 0fbd a8f2 e63d 379e 7a3e 68b8 bd3e
00000320: c6e9 bbbc a3f4 cd3d 01cd 033d b46a f1bd
00000330: 94c3 50bd b9c7 63bd bf96 5ebd 706f a2be
00000340: 01cf 543e 0d50 4c3e 34c7 74bd 8540 5abe
00000350: ec9c b13e 04f9 91b9 8c4d 9f3d 133a 62be
00000360: bfa1 ff3c e569 6bbd b9c1 55bc 3da5 d0bd
00000370: d621 a7bd f500 99bd 477c 17bd 036b 883e
00000380: c1e5 303e 7e73 4b3e 3cfc 633e c323 25bd
00000390: 4823 2abd ebfb c2bd 6eaa cfbc 865c 6d3c
000003a0: 3d98 a2be 65e5 67bc 9d71 0dbe 8bd9 1c3d
000003b0: 5f44 96bc 150b 373e cc5b 5e3d aabb 263e
000003c0: a3db d6ba 7960 913d 7307 a83e d0ec ab3d
000003d0: fe96 09be 5aa1 d4bd 78ce 733d b3b3 6bbe
000003e0: 3b3a 043e 391a b1be 7aeb 403e f2c6 f6be
000003f0: 2dc7 6cbd 5705 2dbc 17a1 2dbe b3a1 853e
0.16234872 0.19371806 -0.12875827 -0.08450705 -0.010269397 0.18400039 -0.04277685 0.08517591
-0.114838816 0.03418252 0.20108354 0.027185835 0.00918877 -0.19632837 0.019846631 -0.09052202
0.05197284 0.06967435 -0.24241363 -0.224072 0.2629588 -0.034428526 0.051803857 0.04904076
0.013202764 0.016359152 0.018064069 -0.08303782 0.052192852 -0.12664951 0.12115979 0.045520954
0.21860865 0.103846155 0.101112165 -0.14057809 0.18766412 -0.17099346 -0.12529835 -0.09310678
-0.04881079 -0.049351294 -0.057795525 0.120991625 -0.17374565 -0.08585635 0.07431613 0.006214983
-0.13778241 -0.10732645 0.31180876 0.017045049 -0.072226964 0.08615366 0.02601818 -0.11824732
-0.037165813 -0.2540079 0.016345143 -0.18245755 -0.29468066 -0.11556427 -0.12560813 0.33657286
0.06037874 0.2194094 -0.34532857 -0.07172821 0.06679625 0.07098269 0.1407787 0.15437008
-0.05099759 0.13049881 0.073950514 0.027151683 -0.05961118 0.0939714 -0.1320392 -0.2542427
0.25726146 0.27457723 -0.03770171 -0.16136098 0.2562109 0.112972766 0.11253175 -0.17775862
-0.021824118 0.0859778 -0.1404398 -0.044361267 0.033928894 0.015879631 0.029473685 0.31303892
0.05570903 0.22579508 0.25331086 -0.14380851 -0.11429007 0.17016114 -0.060434196 -0.022242175
-0.24538508 0.23414566 -0.13300508 0.14341183 0.06017258 0.26170343 -0.063926965 0.15364037
-0.12682691 0.16498217 0.04606937 0.14101596 -0.22161159 0.02785269 0.051407356 -0.2306504
0.025141697 -0.36596063 0.04059225 -0.17368028 0.06977285 -0.046028703 -0.3285532 0.1307978
0.12323771 0.10314132 0.032326255 -0.11999464 0.20585588 0.38515043 -0.27214536 0.51611775
-0.17984314 -0.041216023 0.10653006 0.07441321 -0.25690457 -0.21224621 0.18800269 -0.31792414
-0.083877444 0.43840858 -0.008600407 -0.48443148 0.2532015 0.13062806 -0.065406695 -0.50984716
-0.05354172 0.15228455 0.13517773 -0.2149092 -0.284075 -0.07020126 0.18937175 0.19900268
0.08450164 0.5314859 0.49081463 -0.13511893 0.13763385 0.010272042 -0.06900223 -0.13485481
-0.3940165 -0.4335412 0.12035135 0.2225155 -0.19529058 -0.20072049 0.20967312 -0.054710444
-0.26315463 -0.09830131 0.1835203 0.14507088 -0.34051192 0.42769068 -0.12205022 -0.6722259
-0.022888381 -0.20624653 0.32820743 -0.6183599 -0.0024839896 -0.25866696 0.018883113 0.08130707
0.23672034 0.25700164 -0.24991873 0.015235105 -0.035080764 0.11276752 0.24474417 0.37054753
-0.02293862 0.100564264 0.03217793 -0.1178793 -0.050967768 -0.055610392 -0.05434298 -0.31725645
0.2078209 0.19952412 -0.059760287 -0.21313675 0.34690034 -0.00027842086 0.07778463 -0.22092466
0.031205056 -0.057474036 -0.013046675 -0.10187767 -0.081607506 -0.07470886 -0.036983754 0.26644143
0.17275144 0.19868276 0.22264189 -0.04031731 -0.041537553 -0.09520706 -0.025349822 0.014487391
-0.31756774 -0.014153813 -0.13812871 0.038293403 -0.018343149 0.17875321 0.054286763 0.16282526
-0.0016392361 0.07098479 0.32818183 0.08394778 -0.13436505 -0.10382338 0.059523076 -0.23017769
0.12912838 -0.3459032 0.18839827 -0.48198658 -0.057807136 -0.010560355 -0.16955982 0.2609993

bias f4 [64]
00000000: b032 67be b0d6 8bbe c6ed afbf d9f1 08bf
00000010: c2b6 3dbf 1868 833f 546c cebe a16a d7be
00000020: 5692 f7bd ff4e b1bf a0c5 a03f 0040 573f
00000030: 2927 a9bd 985f cebf 04a0 c8be 088b 803e
00000040: 9cdd 9abf 3ecf 793f d470 24bf 0ed6 aebe
00000050: f0c5 803e c2cf bcbe e46a 77bf b7c7 e7bc
00000060: c36b 543e 29e3 9dbf b259 4bbf 5c40 2fbf
00000070: 92fd 843f 874a a1be 219e dabe 7c7f d6bf
00000080: b8d3 0abf 5c3e 7d3f 3de0 273f 92a0 013e
00000090: ce03 2cbf 66fd dbbf 3306 a1be ee82 923e
000000a0: 5d69 0bbd e892 213e 9055 2ebf 7ec7 8fbf
000000b0: 72ff 593f ee73 3bbf 6075 aebf 2f9f 8ebe
000000c0: c013 823e 57ca ce3e 74a8 47be 48ae 82be
000000d0: aa66 fa3e e479 e6be 4bff 883e b524 663f
000000e0: 3cb9 633e 2a8e 8dbe 958e c3bf bce8 16bf
000000f0: 46f9 bb3d e025 793e 93f0 873e 8a6e 38bd
-0.2257793 -0.2731223 -1.3744438 -0.5349403 -0.7410699 1.0266142 -0.40317023 -0.4207354
-0.12088458 -1.3852233 1.256031 0.8408203 -0.08259422 -1.6122923 -0.39184582 0.25106072
-1.209888 0.9758185 -0.6423466 -0.34147686 0.25151014 -0.36877257 -0.9664748 -0.028293474
0.20744233 -1.2334949 -0.7943374 -0.6845758 1.0389884 -0.31502172 -0.42698768 -1.6757655
-0.5422931 0.9892328 0.65576535 0.12658909 -0.67193305 -1.7186706 -0.31450042 0.28615516
-0.03403603 0.15778697 -0.6809931 -1.1232755 0.85155404 -0.7322377 -1.362957 -0.27855822
0.25405693 0.40388748 -0.19497854 -0.2552359 0.4890645 -0.4501487 0.26757273 0.8989976
0.2223863 -0.27647525 -1.5277888 -0.58948874 0.091784045 0.24330854 0.2655073 -0.045027293

weight f4 [128, 64]
00000000: 5810 56be 9d14 553e e6a1 e63e 7cae eebd
00000010: 18ef a23e 0e66 04be 3d63 563d f7dd 333f
00000020: 6b3b 683e b38d 913e 9f1a 83be f1df 243e
00000030: 20a4 c1be 1620 61be ecc2 c43c 5d84 e7bd
00000040: f462 993e bc47 8dbd df4e a23e 03df a5bf
00000050: 45d3 e3bc 6ef6 38be 0872 233e c4e0 a13e
00000060: 4744 e1be dff7 e5bd a842 d63d 8e5d 193f
00000070: 7a2c 6abd 2848 253e 766d 123f 8b19 133f
00000080: 8ea1 223e aecd 58be 43bd 4a3f d08f f73c
00000090: 2d77 a93e 8682 6bbb 0a1e d83e 8564 9e3e
000000a0: 906b 28be 3faa c3bc 090b 26bc e684 93be
000000b0: 7f23 a63e d414 3c3e 70c7 ca3d c60f 61be
000000c0: 9e5a 53be 423e 7dbe 6d7d 12bd 2c4c a33e
000000d0: 6e52 6abd 409a 6abe 08b9 ba3e 3451 1bbf
000000e0: 70d3 e9be 4644 1c3f a7ce d33e 9c16 523e
000000f0: 4059 e73e 3c2b 243d ee11 6bbe 6799 6cbe
00000100: e74f 72ba f969 dcbe f08a 2340 b707 96bf
00000110: ccd1 713d 6a0f ae3f 782d c1be b101 d33f
00000120: f68c 883c 6152 9c3f 0b2a d8bf e225 65bf
00000130: 389f 12bf 6e7f b2bd 7b61 153e 9088 15bf
00000140: e370 37bf 9572 cfbf d086 99bd fec8 55be
00000150: 87c8 fd3e f880 14be 779d 54bf 17da a03e
00000160: 40dc 0bbf 0391 48bf ad8c 0ebe 172f 45bd
00000170: dfad 113f 3b5d 9a3f 88ee 6e3f d8f7 ac3f
00000180: 966d 1ebf 1c7e e2bf b508 6a3f 1ed4 4e3f
00000190: 3d05 28c0 8ab3 0fbe affe 783f ef0b f73d
000001a0: 2f73 513f 93bc 57bf 2b03 9a3f ec4c 08bf
000001b0: d40a a83f 750b dc3e f68a 233f 1df7 e9be
000001c0: aec3 bf3f 375b 6a3f 0b0e 10bf df2c 70bf
000001d0: 41b0 9fbf 1812 603e 9f4e 633f 5395 83be
000001e0: d3f7 a73e fbb3 b03f f62f 453e 25d1 22c0
000001f0: fd6f 733f b58d 293f 16eb 91bf 4990 2f3e
00000200: 8495 333d 0a6b c0be 94d7 da3e ba85 f03e
00000210: 62bf b03f daf0 c63d 13c8 013f f581 573e
00000220: 1c78 dcbc 31e2 f13d 4388 cdbf 4934 e83e
00000230: 4bf2 b53d c67a 473e 0aa2 68bf 35f8 9fbd
00000240: 9b61 94be 308b e1bf 52d1 86be f9bb 373e
00000250: 82ab 3fbd 0a87 c43e ecff 50bd bc6f 2b3f
00000260: 3153 563e 3ae6 363e 7d37 67bf 5ea7 c4be
00000270: 8a4e d9be c324 72bf 2641 a33e 4c4c d23d
00000280: 1ce8 7dbe 8bd0 033f 226d a33e 1879 b0be
00000290: 6be1 9cbf 7fc7 4fbe 6df7 0f3f b398 dcbc
000002a0: 1839 ea3e eec8 b0be 1ba6 9f3d 6b60 a23d
000002b0: f4fa 033f 1ef4 22be 2c77 103f 5005 30be
000002c0: a7e6 843e 9e53 993d 626d afbe b51d 45be
000002d0: 82cd 4b3f f494 fd3e 3e3e fe3d 5068 0c3f
000002e0: 9be9 c3be bdb7 983e 6a3c 813e 4356 55bf
000002f0: 9564 a63e f527 873e ab19 31be a544 6fbe
00000300: f755 76bf eaf9 33bf 16ce 733f c5e3 82bf
00000310: 2808 46bf 24fc 2abf 5b8e 9dbe b8d4 5340
00000320: 50aa 3b3d e290 b33f eac5 3dbf 3b4a 52bf
00000330: 09c6 22bf d017 30bc ebd6 89be 7ec4 21bf
00000340: 3bd5 03bf b945 d5be 4324 243e 7e00 bc3d
00000350: 39de a13d 635e 1a3f 244a 43bf 4220 fb3c
00000360: 5a24 ebbe a203 e6bd 46bf 69bf 2735 903e
00000370: 24c9 6e3f 498c bd3f 87a3 083f 92e0 d13f
00000380: d651 4a3e 6d13 a3be 2e32 693e bf8a c43f
00000390: 6f93 24c0 827b 00bd fbdb d13f d1ca 07bf
000003a0: 7014 fcbe 6a4f 14bf 31e8 3b3f 60a8 a4bf
000003b0: bc67 603e cf30 fc3e 5fde 813e 5105 0bbf
000003c0: 5d12 9f3f 0fa6 f3be 80bb 24bf 4086 b7be
000003d0: c679 85be ddef 38bf a6b4 503f 0ae7 fdbe
000003e0: aef7 9ebe a6fb 833f 07a7 8b3e 2ae6 01c0
000003f0: bc12 a73f a55a 5a3e 7f8d 303e 6f91 37bf
-0.20904672 0.20808645 0.45045394 -0.11654374 0.3182304 -0.12929556 0.052340735 0.70260566
0.22678916 0.2842842 -0.25606248 0.16101052 -0.3782053 -0.21984896 0.024018727 -0.11304543
0.29958308 -0.06898448 0.317008 -1.2958683 -0.027810702 -0.18062755 0.15961468 0.31616795
-0.43997404 -0.11228918 0.104619324 0.5990838 -0.057171322 0.16140807 0.57198274 0.5746085
0.1588194 -0.2117221 0.7919504 0.030219942 0.33098736 -0.0035935952 0.42210418 0.30936065
-0.16447282 -0.02388489 -0.010134467 -0.2881233 0.32448956 0.1836732 0.09901321 -0.21978673
-0.20640036 -0.2473078 -0.035764147 0.31894052 -0.057207517 -0.22910404 0.36469293 -0.6067078
-0.45669127 0.61041677 0.413686 0.20516437 0.4518528 0.040080294 -0.22956058 -0.23105393
-0.0009243474 -0.430496 2.555355 -1.1721104 0.05903797 1.3598454 -0.37730002 1.6484891
0.016668778 1.221264 -1.688783 -0.8951093 -0.572742 -0.087157115 0.14587967 -0.584115
-0.71656626 -1.6206843 -0.074964166 -0.20877454 0.49567053 -0.14502323 -0.8305277 0.3141639
-0.5463295 -0.7834627 -0.13920851 -0.04814061 0.5690593 1.2059702 0.9333272 1.3513136
-0.61885965 -1.7694736 0.91419536 0.80792415 -2.6253197 -0.14033332 0.97263616 0.12062823
0.8181638 -0.84272116 1.2032217 -0.53242373 1.3128304 0.4297749 0.6388391 -0.45696345
1.4981592 0.9154543 -0.5627143 -0.9381847 -1.2475663 0.21881902 0.8879184 -0.25699863
0.32806262 1.3804926 0.19256577 -2.5440152 0.95092756 0.6623185 -1.1399868 0.17144884
0.04384376 -0.37581664 0.42742598 0.46977025 1.3808405 0.097139075 0.50695914 0.21045668
-0.026912741 0.11810721 -1.6057209 0.4535239 0.08884104 0.19480428 -0.9087225 -0.078110136
-0.28980717 -1.7620602 -0.26331574 0.179428 -0.046794422 0.38384277 -0.051025316 0.6696737
0.20930173 0.17861262 -0.90319043 -0.3840894 -0.42442733 -0.94587344 0.31885642 0.10268459
-0.24795574 0.51490086 0.319192 -0.34467387 -1.2256292 -0.20290945 0.56236917 -0.026928281
0.45746684 -0.34528297 0.07795354 0.079285465 0.515548 -0.15913436 0.5643184 -0.17189527
0.25957224 0.07486652 -0.3426314 -0.19249614 0.79610455 0.49527705 0.124142155 0.5484667
-0.38264164 0.2982768 0.25241405 -0.8333475 0.32498613 0.26397672 -0.17294948 -0.2336603
-0.9622492 -0.70303214 0.9523634 -1.022576 -0.77356195 -0.66790986 -0.3077267 3.3098583
0.04581672 1.402859 -0.7413012 -0.82144517 -0.6358343 -0.010747865 -0.26921782 -0.6319045
-0.5149724 -0.41654757 0.16029458 0.091797814 0.07903714 0.6030027 -0.76285005 0.03065503
-0.45926172 -0.11231162 -0.91307485 0.28165552 0.93275666 1.4808437 0.5337452 1.6396658
0.1975778 -0.31850758 0.22773048 1.5354842 -2.5714986 -0.031367786 1.6395258 -0.5304385
-0.49234343 -0.57933676 0.7340117 -1.2863884 0.21914572 0.49255988 0.25364968 -0.5430499
1.2427479 -0.4758763 -0.643486 -0.35844612 -0.26069468 -0.72241 0.8152565 -0.4959033
-0.3104834 1.0311172 0.2727587 -2.029673 1.3052592 0.2132364 0.17241476 -0.7170629

bias f4 [128]
00000000: ef00 c4be 7dce 63bf dce7 5e3d d929 7bbf
00000010: 7b75 f5bd c07d 01bf 0fe1 bbbd 1fd1 43bf
00000020: 859f 9fbe fc01 0abf 7325 463e 98bc 47bf
00000030: 832c 8ebe 9427 f7be 574d f6bd 9f6d a93e
00000040: bae1 bd3e b97b 00bf 282f 2dbe 05eb de3e
00000050: 90a8 b0be 18e4 50bf ea6e 863e 55bf 3ebf
00000060: e379 5fbf 0274 a4be 5af7 a1bf 470d b73e
00000070: beef c4be cebb a3be 5c07 17bf 90c5 82bf
00000080: 2617 2ebf 078b 87bf ecac 84be ee6b dcbe
00000090: 2452 56bf 315f 85bf bdec 8ebf 2349 ae3e
000000a0: 340b 9bbf 408d 59bf 4631 61be 828b 49bf
000000b0: c425 e0bd 4313 24be bfd1 3fbe 54a0 13bf
000000c0: f1de 96bf 9487 1d3e 8785 72be d347 40be
000000d0: f156 02bf 9004 84bf 1905 793e 0014 28bf
000000e0: 7b70 93bf f05c 59bf 2c71 2dbf 93e1 adbe
000000f0: a654 cebe dc44 013e 6e5a 393c 5ef9 27bf
00000100: 13cf bbbf 8305 12bf 4f01 b9be 2455 7fbe
00000110: 0a65 1dbf 4637 f7be b875 c4be 29b3 11bf
00000120: e012 bebd 8fc7 4ebd 7509 9abe 6b86 36bf
00000130: 0882 2abf 093b 5e3d 3764 80bf 301f 00bf
00000140: ecf4 81bf 4a7f 37be 5db4 bdbd 9932 c13d
00000150: 36e7 a7be 3c54 1abf bda4 13bf 5ebd 0cbf
00000160: aaab ad3e 60b2 8abe 04c7 953d 44c1 a2bf
00000170: 7a25 94be 79b4 e9be da98 18bf e06a bcbf
00000180: 3563 953c 056e 9dbe 62c5 913d cda4 2abe
00000190: b3bb 95be 3e4f 32bf 324d 2bbf 9f67 28bf
000001a0: d5ac 9ebf 36ad 60bf 01f0 44bf d5a9 2bbf
000001b0: 1592 80bf cd6d 80be 2bd6 0dbe 9c7c 2e3e
000001c0: e250 85bc 8737 a9be a3ae e0be ca55 28bf
000001d0: 7ee1 65be 4162 24ba 6746 ddbd 354f 78be
000001e0: 14ae 2cbf de35 0b3f 21ea 803e 41b4 bd3e
000001f0: 18d3 37bf 79aa f03d 38c3 53be 3439 a73d
-0.38281962 -0.8898695 0.054420337 -0.9811073 -0.11985298 -0.50582504 -0.09173786 -0.7649097
-0.3117639 -0.5390928 0.19350223 -0.78022146 -0.27768335 -0.48272383 -0.1202647 0.33091447
0.37086278 -0.50188786 -0.1691252 0.4353868 -0.34503603 -0.81598043 0.26256496 -0.745107
-0.8729536 -0.32119757 -1.2653611 0.35752317 -0.3846416 -0.3197922 -0.58995605 -1.0216541
-0.6800407 -1.0589303 -0.2591318 -0.43051094 -0.83719087 -1.0419675 -1.1165997 0.34040174
-1.2112794 -0.84981155 -0.21991453 -0.787285 -0.10944703 -0.16022973 -0.18732356 -0.57666516
-1.1786786 0.1538375 -0.23683749 -0.18777399 -0.5091391 -1.0313892 0.24318351 -0.6565552
-1.1518701 -0.84907436 -0.6775081 -0.33961162 -0.40298957 0.12623924 0.011313064 -0.6561488
-1.4672569 -0.5703966 -0.3613381 -0.24934822 -0.614823 -0.48284358 -0.38371062 -0.56914
-0.09280944 -0.050483283 -0.3008534 -0.71298856 -0.6660466 0.05425552 -1.0030583 -0.5004759
-1.0152869 -0.1791965 -0.09262917 0.09433479 -0.32793587 -0.6028478 -0.57673246 -0.5497645
0.33920032 -0.27089214 0.0731335 -1.271523 -0.28934842 -0.45645502 -0.5960823 -1.4720116
0.018235782 -0.30748 0.07117726 -0.16664429 -0.29244766 -0.69652164 -0.66914666 -0.65783113
-1.2396494 -0.877643 -0.76928717 -0.6705602 -1.0044581 -0.2508377 -0.1385123 0.17039722
-0.01627392 -0.33050177 -0.43883237 -0.65755904 -0.224493 -0.00062707445 -0.10804444 -0.24248965
-0.6745312 0.5437907 0.25178626 0.37051585 -0.7180648 0.11751265 -0.20679939 0.081652075

weight f4 [64, 128]
00000000: c22f 9dbd 0ccf a6be 454f 9abe c5ac 083e
00000010: 1eaa 253e b749 9d3e 0713 43be 72cf 6f40
00000020: ecb4 1d3f 437e b03e 32db c8be 7a7f 093d
00000030: 7e98 423c 0b1f 1fbe e293 1bbd e1ec e8be
00000040: d82f c2be 8591 d6bc 7a5b f6bd 0e8d 223f
00000050: 13f2 df3d 7faf 923e 5317 dbbe 3e98 85bc
00000060: 3dad 933e f206 103e 82be 973f c85a f1be
00000070: c4bb d13f 7036 b740 5d9e e93e 4e43 b23e
00000080: 17c6 053f 6ca4 613e 6316 9cbc e081 51bd
00000090: 6a3a e83e 51a5 66be 4838 8c40 d1db 1abf
000000a0: 7532 d53e d6d5 9f3e f814 09be 41e9 8ebe
000000b0: 6a7a 433f 6b42 18bf 7e87 9dbe 7754 0b40
000000c0: 9f87 b13f e02b dcbe db57 b83f a66f ccbe
000000d0: 7b5b babe 5653 e9be fe99 febe ac8e 9f3e
000000e0: d6d5 65bd 67f2 933c def5 eebe 3635 41be
000000f0: fd68 a5be 4b79 23bf 0b70 00be b08d 383e
00000100: 42f8 8f3f a2c5 1b3d 8067 453e a602 3cbe
00000110: d086 973f 6a48 863d 8d56 803e ec48 2dbf
00000120: b7e0 1fbe 5fa6 03be bf95 1b3f b5f8 52be
00000130: fd77 173e 3a34 3abe 6fe3 d63c 21e4 a7be
00000140: 7101 803e b58a d9be 063c e2be 6c8b 593f
00000150: df06 a13d f769 c1bd 3409 8e3f 9947 9a3e
00000160: 49a4 88be 7a7a 5a3e e5d0 06bf e456 7dbe
00000170: 4e51 c2bd bbb8 bdbd 7824 9bbd 9e20 8e3f
00000180: bf7e d33e 5964 b13d f3d5 1fbf ac94 c5bd
00000190: 98a4 1dbe 4078 ad3d fcb4 34be 4a0e e53c
000001a0: 1c11 053f 9e71 e9be 527e b73f 9831 5b3e
000001b0: c0e1 5a3c a352 85be a186 40be d7c9 febe
000001c0: 04cf b3be 3412 003e e6f4 c63f b1bb 8abe
000001d0: b8ee 8abe a97c 90be 4fd6 e7be c42c b3bd
000001e0: 16a5 dd3c 82ed f73d c89d bb3e ae02 c0be
000001f0: 3f5d 31bd 04de c7be 2d79 d43d 0352 6e3f
00000200: 1f5f aebe 50a4 c9be d2c4 7a40 18ae 90be
00000210: 0a39 1c40 4361 1bbd 76ee 61be d617 75bd
00000220: 706b bc3f 06d4 c23d 63b5 fabe b988 02bf
00000230: 0af4 d1be 8746 dabe bcca 3e3e aa72 cabe
00000240: ca25 cabe 9d8d f2bd fd83 2e3e 0402 a3be
00000250: c215 823e e7f3 0dbf 1905 d7be ad18 35bf
00000260: 364c 9f3f 3f9a a03f 4e5a 58be 659f f4be
00000270: e904 a9bd 1b54 483e ce6f 363e 9b4c 91be
00000280: 78aa 013f e6f2 8f3e 839c 303f ebcd edbe
00000290: 90cf 83be dbf1 603f 6b1f a73e 04e4 d7be
000002a0: 8edc 0fbe 8dda 6bbe 88d0 d03c 0b14 1c3f
000002b0: 6d1e a73c 7864 2c40 9462 b1b9 072b 933e
000002c0: 6b8c 973e 8f8d cabe 2586 94be 60c4 89be
000002d0: d64a eabd 82ef ba3a 5504 04bf 294c dc3f
000002e0: 03ee 023f 6266 bbbe 229d b2be 1712 81be
000002f0: feca 8f3f 505f 03bf e38a 433f b439 7b3e
00000300: bb13 013c 4b3f 7e3e 6b4a 3e40 3ddc 7ebe
00000310: dd15 aa3d 6ebc a03f 8a24 54be 991d 26bf
00000320: c152 3dbe b145 a9be e985 8540 f5fa 2b3f
00000330: c2fd 6ebf 3b1f 9d3f d0d4 073f 07a1 4a3f
00000340: e531 923d c55c fb3f 2c01 0abf c6e3 5a3f
00000350: 5fec cd3b 4898 4dbf e970 8abe 45ad 26bf
00000360: b95c d8be 0496 ae3e e2fd e6be db95 b2be
00000370: fd4b 2d3f 34e7 263e 141d 813d 408e 32bd
00000380: 5879 a340 9c16 e3bd e5e9 febe cc43 033d
00000390: a48e 9fbe ce54 003e 2f06 433e 58bc 753e
000003a0: 9962 41be fa74 863f cde1 1440 4112 b23e
000003b0: 82d1 7dbd f018 af3f 5014 9ebd 6dfc eebe
000003c0: d995 b2be 4754 97bd 52cf 75be b2af c23e
000003d0: 6a7e 843f 77d9 22be 9817 07be 64ef 123e
000003e0: dd79 9bbd cedb 06bc 7f65 6ebe 39dc c7be
000003f0: edd8 85be 45d8 bebe 156b c1be 219a 303f
-0.07675125 -0.3257984 -0.30138603 0.13347156 0.16178176 0.30720302 -0.19050227 3.7470365
0.6160419 0.3447133 -0.39229733 0.033568837 0.011877177 -0.15539186 -0.03798283 -0.45493224
-0.37927127 -0.026192436 -0.120291665 0.6349648 0.10934844 0.28649518 -0.42791232 -0.016307946
0.28843108 0.1406515 1.1855013 -0.47139573 1.6385427 5.725395 0.45628634 0.34816974
0.52255386 0.22035378 -0.019053644 -0.05114925 0.45357066 -0.22524 4.3818703 -0.60491663
0.41640058 0.3121783 -0.13386905 -0.27912334 0.76358664 -0.59476346 -0.30767435 2.1770303
1.3869513 -0.43002224 1.4401811 -0.3992893 -0.3639792 -0.45571393 -0.49726862 0.31163538
-0.056112133 0.018059922 -0.46671957 -0.18867955 -0.32306662 -0.63856953 -0.12542741 0.180228
1.1247637 0.038030274 0.19277763 -0.18360385 1.1838017 0.06556781 0.25066033 -0.67689395
-0.15613066 -0.12856434 0.6077537 -0.20602687 0.14791866 -0.18183985 0.026231496 -0.32791236
0.250011 -0.42488638 -0.4418642 0.84978366 0.07862639 -0.09444039 1.1096559 0.3013275
-0.2668784 0.21335784 -0.526625 -0.24740177 -0.09488164 -0.0926375 -0.07575315 1.1103704
0.41307637 0.08661718 -0.62435836 -0.096474975 -0.15394819 0.084702015 -0.17647165 0.027960915
0.5197923 -0.45594496 1.4335425 0.21405637 0.013359487 -0.2603961 -0.18801357 -0.49763367
-0.35118878 0.12506944 1.5543487 -0.27096322 -0.27135253 -0.28220108 -0.45280692 -0.08748773
0.027056258 0.12105848 0.36643815 -0.37502044 -0.043301817 -0.39036572 0.10374675 0.9309389
-0.34056947 -0.39383173 3.918263 -0.28257823 2.4409814 -0.037934553 -0.22063622 -0.059837185
1.4720287 0.095130965 -0.48966512 -0.5098987 -0.410065 -0.42631933 0.18632025 -0.39540607
-0.39481956 -0.11843417 0.17042537 -0.31837475 0.25407225 -0.5545029 -0.41996077 -0.7074078
1.2445133 1.2547072 -0.21128199 -0.47777858 -0.0825289 0.19563334 0.17816088 -0.28378758
0.5065074 0.28115004 0.6898882 -0.46446165 -0.25744295 0.8786904 0.32641158 -0.4216615
-0.14048979 -0.2303259 0.02549006 0.60968083 0.02040025 2.6936321 -0.00033833517 0.28743765
0.29599318 -0.39561126 -0.29008594 -0.26907635 -0.11440055 0.0014262053 -0.5156911 1.7210742
0.5114443 -0.3660155 -0.34885508 -0.25209114 1.1233823 -0.5131731 0.763838 0.24533731
0.007878239 0.24828832 2.973292 -0.24888702 0.08304951 1.2557504 -0.20717064 -0.6488891
-0.184886 -0.33060983 4.1725965 0.67179805 -0.93355954 1.2275156 0.530591 0.7915196
0.07138423 1.9637686 -0.5390804 0.85503805 0.006284281 -0.8031049 -0.2703927 -0.6510814
-0.42258242 0.34098828 -0.45115572 -0.34879956 0.67694074 0.16299134 0.06304374 -0.04359269
5.1085625 -0.11088297 -0.49787822 0.032047078 -0.31163514 0.1253235 0.19045328 0.23997629
-0.18885268 1.0504448 2.3262818 0.34779552 -0.06196738 1.3679485 -0.07718718 -0.4667696
-0.3487995 -0.073891215 -0.24004868 0.3802467 1.0351079 -0.15903269 -0.13192594 0.14349133
-0.07591603 -0.008231116 -0.23280905 -0.39035204 -0.26142064 -0.37274376 -0.3777701 0.6898518

bias f4 [64]
00000000: 870d 31be 2804 a0be b675 ee3d 39c9 ecbe
00000010: eaa8 5b3d 98f7 58be cba2 95be 1c0a 06bf
00000020: a8b0 013d dd26 00bf 46c2 73bf d917 0abd
00000030: e8df 25bf 476d cabe 3607 913c 9653 97bd
00000040: 2514 febe 71cd f7be ee78 e0bd b5b9 cdbe
00000050: 80d0 163e e03a d7be 4e84 183e 9ffe 00bf
00000060: 8ded adbe 5cf3 e7be 1174 36bf 41a3 e5be
00000070: 125b 11bf 9d2a cb3d 2e14 44be daa9 01bf
00000080: 9319 f1be 2955 adbe f7c7 c3be e850 e7bd
00000090: c349 65bf 5e49 bdbe 1920 25bf a54d 08bf
000000a0: 028f 22bf b791 23bf 4222 4e3e 7143 22bf
000000b0: ceb2 ecbe b22a 1cbf aef0 cabe c92e f73c
000000c0: 33d9 e2be 122d ecbe 5059 b1bd 45a2 57bd
000000d0: cc44 69bf b9c7 95be 42e6 a6be 710a 92be
000000e0: 0919 febd 4b97 f5be 5a8b b5bb 9aec 9cbe
000000f0: bed6 04bf 329a c1be d9f5 d4be 99ac 09bf
-0.17290317 -0.3125317 0.11643545 -0.4624727 0.053627886 -0.211882 -0.29225764 -0.52359176
0.031662613 -0.500593 -0.9521831 -0.03371415 -0.6479478 -0.39536497 0.017703634 -0.073889896
-0.49624744 -0.48398927 -0.109605655 -0.40180746 0.14727974 -0.42037106 0.1489422 -0.5038852
-0.339703 -0.45302856 -0.71270853 -0.44851115 -0.5677959 0.09920237 -0.19148323 -0.506498
-0.47089824 -0.33854035 -0.382385 -0.112947285 -0.89565676 -0.36970037 -0.645021 -0.53243476
-0.6349946 -0.6389422 0.20130256 -0.6338416 -0.46230167 -0.6100265 -0.3963675 0.030173676
-0.44306335 -0.46128136 -0.08659613 -0.052644987 -0.911206 -0.2925394 -0.32597548 -0.2852359
-0.12407119 -0.4796699 -0.0055402936 -0.30649263 -0.5189017 -0.37812954 -0.41593817 -0.5377899

weight f4 [64]
00000000: 5d9c 01bc 46f2 06be 74fe 913e 4b87 adbe
00000010: 50d6 aa3f a297 823f b6fb d3bd 9f73 263f
00000020: dab6 053e 1614 1e3f 375d 6040 c5ec 0f3f
00000030: b828 9dbd ecb4 393f 1116 5f3f d895 fbbd
00000040: c852 0abf 4250 7c3f 0d41 8b3f 3e75 2b3f
00000050: 9f71 92bd ccba 6c3e 24b5 de3c 9e60 953e
00000060: c585 e83d b694 53be 4687 893e ef7b a2bd
00000070: f8dd 763f 8032 e63f 3eb4 d03e 1ea6 22bd
00000080: 54ff c2bd f615 883f 0215 34be b20b 7e3f
00000090: 6dac 973f 89cc 6d3c 7d4f b0bd 7116 903e
000000a0: 21cc 253d be62 6d3e 849f 8abe 892d 82be
000000b0: 98fd b0bd 6b43 bc3e c37e 543e fc40 1f3d
000000c0: 1b49 633f 81ba 5f3e 9032 cdbd bfd3 c0be
000000d0: 10d0 c13f 9229 08be 3cf2 0fbd 384e 723f
000000e0: f118 103e 0764 6fbb 5026 7f3f 0331 7c3e
000000f0: f466 823e 50a1 293f 2be8 15be 65d5 a6bc
-0.007910815 -0.13178357 0.28514445 -0.33892283 1.3346653 1.0202525 -0.103507444 0.65020174
0.13058034 0.617494 3.5056894 0.56220657 -0.07673782 0.7254169 0.87143046 -0.1228444
-0.54032564 0.98559964 1.0879227 0.6697577 -0.07150578 0.23118132 0.027185984 0.29175276
0.113536395 -0.20662197 0.26861018 -0.07933795 0.9643245 1.7984161 0.40762514 -0.039709203
-0.09521356 1.0631702 -0.17586139 0.99236596 1.1849495 0.014514097 -0.08608911 0.2814212
0.040477876 0.23182198 -0.27074826 -0.25425366 -0.08642119 0.36770186 0.20751481 0.038880333
0.88783425 0.2184849 -0.1001941 -0.3766155 1.5141621 -0.13297108 -0.035143122 0.946506
0.14072014 -0.0036528127 0.99667835 0.24628071 0.25469172 0.6626177 -0.14639346 -0.020365426

bias f4 [64]
00000000: 8c63 d13e 9c49 763e a59c c6be 2ba4 593f
00000010: cbab 7c3f dfa4 ecbd 6550 d83d aa4a 46bf
00000020: 0fcd 22bd 2b07 debe 8db2 0d3f 7ceb 0abf
00000030: 7a02 363f 66c5 89be 2851 543f c141 7d3e
00000040: 5c88 9fbd 8a03 fcbe 0a4b 073e 05ed 52bc
00000050: 9623 1cbd 25e1 23be 2679 fc3d f86f b0bd
00000060: ad04 b73c 85ad 293e 51e7 ad3e 1faa 99be
00000070: 093e a7be ece3 04be 2055 16bf 00cd 11bf
00000080: 0709 fcbb 8e0c 5bbf 6b30 b2be 02bb 65bd
00000090: 57bf 103f 16fd 143c a4ae 01bf c5e6 813c
000000a0: 918e bf3d a5c3 bd3e 0ef1 b4be 2e97 503f
000000b0: ba95 91be 6065 9abe 01d3 3ebe bf5a be3d
000000c0: 05b8 febe 4a73 40be 1f8c fd3d f1fa 073e
000000d0: e22e 77bd 51ad 0d3f 02e2 a2bd d2f6 6cbc
000000e0: 56ea 763e 1a81 86be 14cd 48bc 0b93 db3e
000000f0: 31e4 88be d477 93be 5a80 3c3d 6ebc 92ba
0.4089626 0.24051517 -0.38791385 0.85016125 0.98699635 -0.11554884 0.10562209 -0.7745768
-0.03974634 -0.43364844 0.5535057 -0.5426557 0.7109753 -0.26908416 0.82936335 0.24732114
-0.0778968 -0.4922145 0.13212219 -0.012873893 -0.038119875 -0.16003855 0.12327795 -0.08615106
0.022341097 0.16570099 0.33965543 -0.30012605 -0.32664517 -0.1297757 -0.5872364 -0.5695343
-0.007691506 -0.8556603 -0.34802565 -0.056086548 0.5654196 0.0090935435 -0.50657105 0.01585711
0.09353364 0.37063327 -0.3534016 0.8148068 -0.28434545 -0.30155468 -0.18635179 0.09294652
-0.4974977 -0.1879398 0.123802416 0.1327932 -0.060347445 0.55342585 -0.07953264 -0.014463143
0.2411283 -0.26270372 -0.012255926 0.42885622 -0.26736596 -0.2880236 0.046020843 -0.0011195072

weight f4 [64]
00000000: 45b2 ad3f 094b 223f ee25 a33f d6d2 6f40
00000010: 8e85 ab3f 7166 2640 d9b8 b83f b3f2 1140
00000020: 1da5 403f 71c3 f73f 586d 1440 dbbc 943f
00000030: 08a2 5440 b46f d73f e9c3 c13f dda5 9f3f
00000040: dabb dd3f ca87 9e3f 78f0 9e3f 9531 123f
00000050: 0f88 c53f 019c 1140 484b 913f a261 3340
00000060: 27f5 0e40 b784 bc3f 0ab9 883f 661a 803f
00000070: 1a75 f53f 8a70 fb3f b8f8 603f eef4 b13f
00000080: 0500 f63f c8d8 073f cde6 5140 b6da f53f
00000090: 7ab1 ac3f b795 2540 0d95 a03f f6f2 4240
000000a0: 4f9d b13f f02f 7e40 4bff 453f f7ae 6a40
000000b0: 4920 1140 bd68 fc3f b257 3e40 827c 0a40
000000c0: c13f 813f 9f68 f93f 1a79 9d3f 7dc5 9e3f
000000d0: a577 0940 d01b 1040 acd4 0740 a856 b23f
000000e0: f147 3040 e022 c43f 81cc 1e40 c0bd d93f
000000f0: 7a32 b83f 96e0 d13f 5429 b93f 18ab 5840
1.3570029 0.63395745 1.274595 3.7472434 1.3400133 2.6000025 1.4431411 2.2804382
0.7525194 1.9356519 2.3191738 1.1620134 3.3223896 1.6830964 1.5137912 1.2472492
1.7322953 1.238519 1.2417135 0.57106906 1.5432147 2.2751467 1.1351099 2.802834
2.233713 1.4728001 1.068147 1.0008056 1.9176362 1.9643719 0.87879515 1.3902872
1.9218756 0.53065157 3.279712 1.920737 1.3491662 2.5872629 1.2545487 3.0460792
1.3876132 3.9716759 0.7734267 3.666929 2.2675955 1.9719464 2.9741025 2.1638494
1.0097581 1.9485053 1.2302582 1.2404019 2.1479275 2.2516975 2.1223555 1.3932695
2.754391 1.5323143 2.481232 1.7011032 1.4390404 1.6396663 1.4465737 3.3854427

bias f4 [64]
00000000: 5750 9bbe a29e b3be de25 09be eac6 1b3f
00000010: 5ba3 07be 631e c73e 79b0 3dbe c755 e53d
00000020: 0962 73be b8dc ff3e 4101 db3d 1368 17be
00000030: 8f8b 113f d00a 0d3e 839e 94bc 9132 38be
00000040: 4a18 da3e 4450 cfbe ec6d 72be 32f5 2cbf
00000050: 1e85 0fbd 7ef1 9d3d c801 40be 720c e43e
00000060: 2d7b 623e c1b7 bdbd 6395 87bd c6f4 3cbf
00000070: ecb1 a0bd 2652 71bd 9f46 c1be 947f b2bc
00000080: f3ee 4e3d 96fd dabe bcce 1c3f 39ba a63d
00000090: 3ee9 343d 14f7 fe3e 110e 1cbd 6617 033f
000000a0: 2006 bebd 3744 243f 16d6 03bf 8c35 4f3f
000000b0: c998 953d 82e5 533e d4a1 143f f13e 1b3f
000000c0: d7fb f3be 67cd d53d c76b a6bc 4778 73be
000000d0: cec2 96be b8f9 003f 0bc8 023e fb04 97be
000000e0: 6f52 053f 9edb 24be 410e d73e 5051 423d
000000f0: f185 6dbe ffc8 de3e 9e2c 82bd 6ded 3b3f
-0.30334732 -0.35081965 -0.13393351 0.60850394 -0.13245909 0.3889037 -0.1852435 0.11198001
-0.23767866 0.49973083 0.106935985 -0.14785795 0.56853575 0.13773656 -0.01814199 -0.1798804
0.42596656 -0.40490925 -0.23674744 -0.6756164 -0.03503906 0.077120766 -0.1875068 0.44540745
0.221173 -0.09263564 -0.0662029 -0.73810995 -0.07846436 -0.058916233 -0.37749192 -0.02178935
0.05052085 -0.42771596 0.6125295 0.08140988 0.04416775 0.4979788 -0.038099352 0.5120758
-0.09278512 0.6416659 -0.51498544 0.8094108 0.07304532 0.20693019 0.5805943 0.60642916
-0.47653076 0.10439568 -0.020315064 -0.23776351 -0.294455 0.5038104 0.12771623 -0.29495987
0.5207891 -0.16099402 0.42003062 0.047440827 -0.23195626 0.43512723 -0.06356166 0.7340916

weight f4 [64]
00000000: 0e67 0241 1b71 ed40 346e 0041 319a 0741
00000010: 3d17 df40 fa3e 0041 051b f140 8b14 ff40
00000020: 5449 e840 aa13 ff40 a25f e240 90bc ec40
00000030: f29e 0541 201d 0041 025c e140 e2f2 f540
00000040: 8a26 fd40 0be2 f640 54a5 f540 a890 f340
00000050: a5af 0341 e9d7 fc40 9008 0241 2e25 fa40
00000060: 0e0a fe40 e961 fb40 6a4f 0341 c14e 0641
00000070: d0e3 0041 421d ea40 046a fb40 a67f 0041
00000080: a59d 0141 27b8 e040 9685 0841 7692 f540
00000090: de28 0241 cacc 0741 8b1e 0341 3dbc 0841
000000a0: ff49 f940 51c7 0641 68af fa40 eb4e 0741
000000b0: 5f5c 0141 1c18 ff40 b66c 0441 f313 eb40
000000c0: 6a5e fd40 8f67 f940 3790 e940 3650 f140
000000d0: f18f e840 1a37 0641 f115 0641 d420 f640
000000e0: ff69 0a41 70a3 fd40 99f5 0741 45b6 0241
000000f0: 849e f940 3a43 0341 4418 0141 7149 0b41
8.15016 7.420057 8.026905 8.475144 6.9715867 8.015375 7.5345483 7.9712577
7.258951 7.9711504 7.074174 7.398018 8.351305 8.007111 7.0424814 7.685899
7.9109545 7.715093 7.6764317 7.611408 8.230382 7.901356 8.12709 7.8170385
7.9387274 7.855702 8.206888 8.394227 8.055618 7.3160715 7.8566914 8.031164
8.100987 7.0224795 8.532614 7.6741285 8.134977 8.487497 8.194957 8.545957
7.7902827 8.423661 7.833912 8.456767 8.085052 7.971693 8.276541 7.346185
7.917775 7.7938914 7.2988544 7.5410414 7.267571 8.388453 8.380357 7.6915073
8.650878 7.926201 8.49746 8.169499 7.8006 8.203913 8.068424 8.70543

bias f4 [64]
00000000: 08d0 e440 8ad1 df40 0046 e340 6bca e440
00000010: 7d0d dd40 dec4 e140 8015 e240 9137 dc40
00000020: e931 e140 92b2 dc40 6e7a df40 c697 e040
00000030: 15c9 e340 1987 e140 2bdd df40 c8bb e240
00000040: 4d44 e140 4a6a e140 8a35 e140 2bad de40
00000050: 34c4 e240 53c6 de40 5689 e340 d769 dc40
00000060: 1b9c e040 e867 dd40 1900 e640 2e09 e440
00000070: d960 e240 1b83 de40 c174 e140 4abb de40
00000080: 06a3 e340 ace2 de40 ee88 e240 5b5f e140
00000090: b775 e840 30c7 e640 b694 de40 204d e440
000000a0: 5db7 de40 dedd e340 13e4 e040 f768 e240
000000b0: ab22 e340 d1a2 df40 7761 e140 5f09 e240
000000c0: 9ea1 e040 8191 dd40 af7b e140 eda7 e040
000000d0: eb58 e040 83ac e240 f25a e140 3faa e140
000000e0: 7c6c e440 70aa df40 0503 e640 6be4 e240
000000f0: 3bcc da40 ae41 e040 83b1 e240 48f9 e540
7.1503944 6.9943285 7.102295 7.149709 6.9078965 7.0552816 7.0651245 6.881783
7.0373425 6.896798 6.983695 7.018527 7.118296 7.0477414 6.995748 7.0854225
7.0395875 7.0442247 7.0377855 6.9586387 7.0864506 6.9617095 7.1105146 6.88792
7.019056 6.918934 7.187512 7.1261206 7.074322 6.953504 7.045502 6.9603624
7.1136503 6.96517 7.079215 7.04289 7.2643695 7.211815 6.955653 7.1344147
6.959883 7.1208334 7.027841 7.075313 7.097982 6.988625 7.0431476 7.063644
7.0197287 6.9240117 7.046348 7.0204988 7.0108542 7.0835586 7.0423517 7.052032
7.1382427 6.9895554 7.1878686 7.090383 6.8374305 7.0080175 7.084169 7.18668

weight f4 [1, 64]
00000000: f38f be40 da29 ac40 f5b6 c140 55ce cb40
00000010: 325c 9e40 ea43 ba40 776a b240 c11e c740
00000020: 24b5 ab40 6f1f c540 80e2 a040 6b83 ae40
00000030: cd7d c440 ff75 c440 74c3 9f40 2d4d b440
00000040: 11d9 c140 3358 b640 9afb ab40 7a99 ae40
00000050: cc57 bf40 8d4b c440 b9ca c540 2436 c440
00000060: 7675 c340 905a c440 d96c c540 70c7 c040
00000070: 78d8 c340 344a a440 ef85 b540 302f c540
00000080: 9071 c540 35fb a440 00f9 d340 b5e5 ae40
00000090: e2c2 be40 5085 ce40 530b c940 f91b d340
000000a0: 34d7 c040 8eb5 c640 b1b0 b540 0638 d040
000000b0: 8753 bd40 a6c2 c440 bb3c cd40 c299 ae40
000000c0: 5844 b840 b0e2 c240 84a2 ac40 0133 af40
000000d0: ab55 a540 923e ce40 b164 cf40 c085 b340
000000e0: 20db d240 1718 c340 bb09 c640 42bd bc40
000000f0: c17d c340 2636 c840 da40 c740 2a9d d140
5.955072 5.380109 6.0535836 6.368937 4.9487543 5.8207903 5.575496 6.222504
5.365862 6.160087 5.027649 5.453542 6.1403565 6.139404 4.992609 5.634421
6.0577474 5.6982665 5.374463 5.456235 5.9794674 6.1342225 6.1809964 6.131609
6.1080885 6.136055 6.169537 6.0243454 6.1201744 5.134058 5.6725993 6.16201
6.1701126 5.155665 6.6241455 5.4655404 5.9612894 6.4537735 6.2826324 6.5971646
6.02627 6.2096624 5.677819 6.506839 5.916446 6.148761 6.4136634 5.4562693
5.7583427 6.090172 5.3948383 5.474976 5.1667075 6.445138 6.4810414 5.610077
6.5892487 6.0966907 6.188688 5.8981028 6.109101 6.25661 6.2266665 6.550435
